model.tflite (tflite, 15912 bytes, 9 tensors)

dense/MatMul_bias f4 [10]
0	0xbc72935e	-0.014805643
1	0xbc5b998f	-0.01340331
2	0x3c3d98f7	0.011572114
3	0x3b712ee4	0.003680163
4	0x3c6bd1d3	0.014393288
5	0x00000000	0.0
6	0xbc8a3a57	-0.016873522
7	0xbc9018c3	-0.017589932
8	0x00000000	0.0
9	0x00000000	0.0

dense/kernel/transpose f4 [10, 13]
0	0x3ef55ef5	0.4792401
1	0xbd7751ec	-0.06038086
2	0x3e4abe6c	0.19799203
3	0x3d820fe8	0.0635069
4	0x3e721308	0.23640072
5	0x3e485fa6	0.19567737
6	0x3dc085b7	0.09400504
7	0x3ed8c48a	0.42337447
8	0x3e973da6	0.29539222
9	0xbe98d586	-0.29850405
10	0x3eb1010c	0.3457111
11	0xbe9184f8	-0.2842176
12	0xbe45d730	-0.19320369
13	0x3e41f0c6	0.18939504
14	0xbe47bbe9	-0.19505276
15	0x3ee8f019	0.4549568
16	0xbdefbada	-0.11705561
17	0x3ecd2890	0.4007001
18	0x3c41e222	0.011833699
19	0xbe8ef7cf	-0.27923438
20	0xbe3bceee	-0.18340656
21	0x3eb27da3	0.34861478
22	0xbe291ce8	-0.16514933
23	0x3dba9699	0.091107555
24	0xbe14c56c	-0.14528435
25	0xbe88bac8	-0.26705003
26	0xbee85fa1	-0.4538546
27	0xbe48539c	-0.19563144
28	0x3e80f9ee	0.2519068
29	0x3e84ea4f	0.25960013
30	0x3eab0083	0.33398828
31	0x3ef1ef59	0.4725292
32	0x3de5740f	0.11203777
33	0xbe0bada9	-0.13640465
34	0x3cc3912b	0.023872932
35	0x3e9231a1	0.2855349
36	0x3ea9bfe6	0.3315422
37	0xbea4962b	-0.3214582
38	0xbd76c90c	-0.060250327
39	0x3ef3be81	0.4760628
40	0xbe507777	-0.20358072
41	0xbc0ad69d	-0.008474019
42	0xbea6a464	-0.32547295
43	0x3ebcf0e5	0.36902538
44	0x3e53158d	0.2061369
45	0x3c4bd9ad	0.012442035
46	0x3ef04421	0.46926978
47	0xbe3348c2	-0.17508224
48	0xbd92280a	-0.07136543
49	0xbef7eb0a	-0.48421508
50	0x3e762e64	0.24041134
51	0x3eae2254	0.34010565
52	0xbeb06cfa	-0.34458143
53	0x3ed8bb78	0.42330527
54	0xbe8d535f	-0.2760267
55	0x3e4952da	0.19660512
56	0x3dacfa78	0.084462106
57	0xbe0b07a5	-0.13577135
58	0x3e7fb59e	0.24971625
59	0x3ebc8a03	0.36824045
60	0x3e829fe3	0.2551261
61	0xbeb82f21	-0.35973457
62	0x3d766bd2	0.06016142
63	0x3f06d849	0.52673775
64	0x3ef2d56b	0.4742845
65	0x3ebce3fa	0.36892682
66	0x3edd96fc	0.43279254
67	0x3f022a25	0.5084556
68	0xbe97bb8e	-0.2963528
69	0xbed4de5d	-0.415759
70	0xbea32588	-0.31864572
71	0x3eeb6960	0.45978832
72	0x3ed39c76	0.41330308
73	0x3ec208b0	0.37897253
74	0xbe31d572	-0.17366579
75	0xbeda9267	-0.4268982
76	0x3d757420	0.0599252
77	0x3e039e48	0.12853348
78	0xbd1e3909	-0.03862861
79	0xbe0b78b5	-0.13620265
80	0xbece7cc9	-0.4032958
81	0xbebba40f	-0.36648604
82	0x3e8768ed	0.2644724
83	0xbe9db7c8	-0.30804276
84	0xbe644957	-0.22293602
85	0xbeb6091a	-0.3555382
86	0xbf039f98	-0.51415396
87	0xbea63cc1	-0.32468227
88	0x3e345d5e	0.17613742
89	0xbce6d4fd	-0.028177733
90	0x3ed4583a	0.41473562
91	0x3ec7ac9c	0.38998878
92	0xbe71e5d0	-0.23622823
93	0x3e13bd88	0.14427769
94	0x3e21a307	0.15784846
95	0xbe2bf6b4	-0.16793329
96	0xbf0580bb	-0.5214955
97	0xbeb5bf3b	-0.3549746
98	0x3ea5bfbc	0.32372844
99	0xbf00c185	-0.5029529
100	0xbe628ab9	-0.22123231
101	0xbe309476	-0.17244133
102	0xbec6a77d	-0.38799658
103	0x3dd513ca	0.10404165
104	0x3e0acb98	0.13554227
105	0xbc9b7e60	-0.018981159
106	0xbe4979d0	-0.19675374
107	0x3e504400	0.2033844
108	0xbe8bf1b4	-0.27332842
109	0xbe7b8e8a	-0.24566093
110	0xbeca5ee8	-0.39525533
111	0x3c231700	0.009954214
112	0x3e953012	0.29138237
113	0xbe07d6b6	-0.132655
114	0x3dd5e5b0	0.104442
115	0xbf02a638	-0.5103488
116	0xbed3d3cc	-0.41372526
117	0x3e0f9f00	0.14025497
118	0xbe80f693	-0.2518812
119	0x3ee2823a	0.4423998
120	0xbb1a0c00	-0.0023505688
121	0xbdeb2e04	-0.11483386
122	0xbef5fbe0	-0.48043728
123	0x3ed3a5c8	0.4133742
124	0xbe6e3b26	-0.23264751
125	0x3d851658	0.06498402
126	0x3e6bcc08	0.2302705
127	0x3eaca532	0.33719784
128	0xbd92cf50	-0.07168448
129	0x3eb208a6	0.34772223

dense_1/MatMul_bias f4 [64]
0	0x00000000	0.0
1	0xbbf8dd20	-0.0075947195
2	0xbc5b0f29	-0.013370314
3	0x00000000	0.0
4	0x38550878	5.0791044e-05
5	0xbc88e884	-0.016712435
6	0x00000000	0.0
7	0x3bea99e9	0.007159461
8	0xbc1db7f1	-0.009626375
9	0xbc11bbbf	-0.00889486
10	0x00000000	0.0
11	0xbc099b64	-0.008398864
12	0x00000000	0.0
13	0xbbca5e0f	-0.0061757634
14	0x3c30225b	0.0107503785
15	0xbc83966b	-0.016062936
16	0x3b58316b	0.003298844
17	0xbc831a4b	-0.016003748
18	0x00000000	0.0
19	0x00000000	0.0
20	0xbc014916	-0.00789096
21	0xbc25b196	-0.010113141
22	0x00000000	0.0
23	0x3b9fb650	0.0048740283
24	0x00000000	0.0
25	0x00000000	0.0
26	0x3c2a6d14	0.010401983
27	0x00000000	0.0
28	0x00000000	0.0
29	0x00000000	0.0
30	0x00000000	0.0
31	0xbc584257	-0.01319941
32	0xbc71e47c	-0.014763948
33	0x3c14c00f	0.009078993
34	0xbbc74f5d	-0.006082459
35	0x00000000	0.0
36	0x3bdfbc27	0.0068278494
37	0x00000000	0.0
38	0x3c851904	0.01624728
39	0x00000000	0.0
40	0x3bddcd08	0.0067688264
41	0x00000000	0.0
42	0x00000000	0.0
43	0x00000000	0.0
44	0x00000000	0.0
45	0x3c411ed5	0.011787136
46	0x00000000	0.0
47	0xbab73cd4	-0.001397992
48	0xbc44a717	-0.012002728
49	0x3c518562	0.012788149
50	0xbbf90895	-0.0075999
51	0x3c44908c	0.011997353
52	0xbc26a20c	-0.010170471
53	0x00000000	0.0
54	0xbc4566c8	-0.012048431
55	0xbc411252	-0.011784153
56	0xbc183c1c	-0.009291675
57	0x00000000	0.0
58	0x00000000	0.0
59	0x00000000	0.0
60	0x3c2c8d65	0.010531758
61	0xbc548ee0	-0.012973517
62	0xbc11c6f3	-0.008897531
63	0x00000000	0.0

dense_1/kernel/transpose f4 [64, 10]
0	0xbe4035af	-0.18770479
1	0xbda43172	-0.080172434
2	0x3e36194c	0.17783087
3	0x3cf9a050	0.03047195
4	0xbe6893d8	-0.22712648
5	0xbe534641	-0.20632268
6	0xbd121fb0	-0.03567475
7	0xbe081622	-0.13289693
8	0xbe3c1342	-0.18366721
9	0xbe23af48	-0.15984833
10	0xbdad90bb	-0.08474871
11	0x3e6ebfb4	0.23315316
12	0x3dad1f50	0.08453238
13	0xbda44588	-0.080210745
14	0xbe52dd5e	-0.20592257
15	0xbddbce1c	-0.107326716
16	0xbe86f251	-0.26356748
17	0x3db60339	0.088873334
18	0x3e1bc6a8	0.152125
19	0xbd4f5ad4	-0.05062373
20	0xbe87d660	-0.26530743
21	0x3e84e262	0.25953966
22	0x3e7e08c0	0.24808025
23	0xbe88e05d	-0.26733676
24	0x3e57dfff	0.21081541
25	0x3e579534	0.2105301
26	0xbe20f5d0	-0.1571877
27	0x3e536a5e	0.20646045
28	0xbe1244c3	-0.14284043
29	0xbd2b9610	-0.041891158
30	0xbe41cdfe	-0.18926236
31	0xbdbb3fc4	-0.09143022
32	0xbe5e2d67	-0.21697007
33	0xbe11c334	-0.1423462
34	0x3e5d3056	0.2160047
35	0xbe6df7f6	-0.23239121
36	0xbe678241	-0.22608282
37	0xbd4ac11c	-0.04950057
38	0xbe06710b	-0.1312906
39	0xbb26af00	-0.0025433898
40	0x3db21e93	0.08697238
41	0xbcce5992	-0.025189195
42	0xbd1a0de6	-0.03761091
43	0xbe4b989a	-0.19882432
44	0x3dda266f	0.10651862
45	0x3e00a760	0.12563848
46	0x3e883ef7	0.26610538
47	0x3e5f7079	0.21820249
48	0xbde69bf8	-0.112602174
49	0x3e59ad5e	0.2125754
50	0x3df89a89	0.1213885
51	0x3d5c5ada	0.05379758
52	0xbc8d59b0	-0.01725468
53	0xbe06f201	-0.13178255
54	0xbe61c8be	-0.22049233
55	0x3e142800	0.14468384
56	0xbd9df9e1	-0.07713676
57	0x3e4df58c	0.201132
58	0xbe616d18	-0.22014272
59	0x3e83c51b	0.25736317
60	0xbda74030	-0.0816654
61	0x3c107020	0.008815795
62	0x3c8e1380	0.017343283
63	0xbcf33950	-0.029690415
64	0xbe4e2536	-0.20131382
65	0xbdbc5a84	-0.09196952
66	0x3e885ef9	0.26634958
67	0x3e6c841a	0.23097268
68	0x3e103262	0.1408172
69	0xbd31ed0c	-0.043438956
70	0xbd86fba7	-0.065909676
71	0x3e4747f3	0.1946104
72	0xbdf1e6f1	-0.11811627
73	0x3daf1c99	0.085503764
74	0x3e14ac8c	0.14518946
75	0xbe213701	-0.15743639
76	0x3ca54d81	0.020178558
77	0xbe0a398e	-0.13498518
78	0xbe3cc166	-0.1843315
79	0xbdd87176	-0.10568516
80	0x3e056324	0.130261
81	0x3da5b2fc	0.08090779
82	0xbcec1174	-0.028816916
83	0xbe60a3a8	-0.2193743
84	0x3e523dba	0.2053136
85	0x3e1b0614	0.15139037
86	0x3d535102	0.051590927
87	0x3e7b1390	0.24519181
88	0xbe901fbc	-0.2814921
89	0x3e0508bc	0.12991613
90	0x3e4e4469	0.20143284
91	0x3dbbea92	0.091756
92	0x3daf3a7f	0.08556079
93	0x3e170fa3	0.14752059
94	0x3e78eabd	0.24308296
95	0xbe35bd84	-0.17748076
96	0x3e05a349	0.1305057
97	0x3e6009bc	0.21878713
98	0x3bdb9880	0.006701529
99	0xbe140de4	-0.14458424
100	0xbe714e78	-0.2356509
101	0xbe7caaf3	-0.24674587
102	0xbe7976b8	-0.24361694
103	0x3d4843a0	0.048892617
104	0x3e1d98aa	0.15390268
105	0xbd88d47c	-0.06681153
106	0x3e5f4cae	0.21806595
107	0xbe8d66bc	-0.27617443
108	0xbdec4404	-0.115364105
109	0x3e863f21	0.2622004
110	0x3e3fb5a8	0.1872164
111	0x3dac85c0	0.08423948
112	0x3d7e4710	0.06207949
113	0x3debfcd1	0.1152283
114	0xbc7430f8	-0.014904253
115	0x3e34f5e4	0.17671925
116	0x3e410e8f	0.1885321
117	0xbe391a95	-0.18076546
118	0xbe70bf10	-0.23510385
119	0x3e157be0	0.14598036
120	0xbc905340	-0.017617822
121	0xbe827861	-0.25482467
122	0xbdfd2794	-0.123610646
123	0x3e664752	0.22488144
124	0x3b839240	0.004015237
125	0xbe0dd496	-0.13850626
126	0x3e7fa02a	0.24963441
127	0xbe5b996e	-0.21445248
128	0xbe8c7055	-0.27429453
129	0x3e0b708e	0.13617155
130	0x3e1afef2	0.15136316
131	0x3dd9f799	0.10642929
132	0xbd2dd9f4	-0.042444184
133	0xbc3c5ba7	-0.011496461
134	0xbd815581	-0.06315137
135	0xbe8d35f6	-0.2758023
136	0xbdae79cb	-0.08519324
137	0xbcde599e	-0.027142342
138	0x3bd58140	0.006515652
139	0x3e16ad8a	0.14714637
140	0x3e33e817	0.17569004
141	0x3e87dca9	0.26535538
142	0x3e2a547e	0.16633794
143	0x3e60c31a	0.21949425
144	0xbd65ad87	-0.05607369
145	0xbde63102	-0.11239816
146	0x3d9eadf0	0.0774802
147	0xbdeecfb0	-0.11660707
148	0x3e11acc2	0.14226058
149	0x3c156220	0.009117633
150	0x3e6a07bb	0.22854511
151	0xbe46ccdf	-0.1941409
152	0x3daf9522	0.08573367
153	0x3d32b6d9	0.04363141
154	0x3e66fe0e	0.22557852
155	0xbd965512	-0.073404446
156	0xbdcedef3	-0.10101118
157	0x3d790557	0.060796108
158	0x3dfc1344	0.12308362
159	0xbe43c6d6	-0.19118819
160	0x3e55b04f	0.20868038
161	0x3e91417b	0.2837027
162	0xbe5c4170	-0.21509337
163	0x3e4f8656	0.20266089
164	0xbe63b00d	-0.22235127
165	0x3d9741cc	0.07385597
166	0x3dc3fb38	0.095694005
167	0xbe222516	-0.1583446
168	0x3db80ba8	0.08986598
169	0xbe5ca0b2	-0.21545675
170	0x3e62d0fd	0.22150035
171	0x3e37b1a5	0.1793886
172	0xbe4b8d99	-0.19878234
173	0x3c5ed6e1	0.013601036
174	0xbe93467e	-0.2876472
175	0xbd9f9094	-0.07791248
176	0x3d3d6975	0.04624315
177	0xbca88a9a	-0.020573903
178	0x3e0facd2	0.1403077
179	0xbd4bf0b8	-0.049790114
180	0xbe3abe6b	-0.18236701
181	0xbe857eb5	-0.26073232
182	0xbdac814c	-0.08423099
183	0xbdc290fa	-0.09500308
184	0xbe5ac5b8	-0.21364486
185	0x3e693cce	0.22777101
186	0x3e82805f	0.25488564
187	0xbe81ba60	-0.25337505
188	0x3e8a79c7	0.27046034
189	0x3d01e118	0.031708807
190	0xbd6ea70c	-0.058264777
191	0x3daf8fec	0.08572373
192	0xbe638368	-0.22218096
193	0xbe3e1edc	-0.1856646
194	0xbe475090	-0.19464326
195	0x3dbf8af4	0.09352675
196	0xbe77ee00	-0.24211884
197	0x3db128e4	0.086503774
198	0xbe73f8fe	-0.23825452
199	0xbe3ee5ee	-0.18642399
200	0x3e79c24a	0.24390522
201	0x3e891f8c	0.2678188
202	0x3e196e77	0.14983545
203	0xbcfcdd59	-0.030867266
204	0xbe8e2207	-0.27760336
205	0xbe40043a	-0.18751612
206	0x3da8046c	0.082039684
207	0x3dce21d9	0.1006505
208	0xbc7763c0	-0.015099466
209	0xbdc86e58	-0.097866714
210	0xbd8e729d	-0.069554545
211	0xbe4f03c8	-0.20216286
212	0x3e25e828	0.16201842
213	0x3d2fc26a	0.042910017
214	0xbe712334	-0.23548585
215	0xbe0fbf50	-0.14037824
216	0xbdf8d5b2	-0.12150134
217	0x3e8613df	0.26187035
218	0xbd5348d4	-0.051583126
219	0x3dab922c	0.083774894
220	0x3d925384	0.071448356
221	0xbe3e56d8	-0.18587816
222	0xbe6ea9db	-0.23306982
223	0xbe470340	-0.19434834
224	0xbe853bf3	-0.260223
225	0xbe5fd5ec	-0.21858948
226	0xbe53acf6	-0.20671448
227	0xbe3ed2ad	-0.18635054
228	0xbe6cba5c	-0.23117965
229	0x3d4d1ed8	0.050078243
230	0x3e786f66	0.24261245
231	0xbe5833ab	-0.2111346
232	0xbe371ced	-0.17882128
233	0xbdaef078	-0.085419595
234	0x3d80f930	0.06297529
235	0x3e1c6a2c	0.15274876
236	0x3dce27f1	0.10066212
237	0x3e5b5637	0.21419607
238	0xbe5fdfa0	-0.2186265
239	0xbddd15fe	-0.1079521
240	0xbe66f7e7	-0.22555505
241	0x3d741bf0	0.059596956
242	0xbde2d4b6	-0.11075728
243	0xbd183640	-0.03716111
244	0xbe18e557	-0.14931236
245	0x3e8cf111	0.2752767
246	0xbe2d05d4	-0.16896755
247	0x3e02eb60	0.12785101
248	0x3dd47200	0.10373306
249	0x3e1048f8	0.14090335
250	0xbe4284bb	-0.18995945
251	0xbddfdc3a	-0.10930677
252	0xbe0961c6	-0.13416204
253	0xbd6940f4	-0.05694671
254	0xbe1a3268	-0.15058291
255	0xbe64dfb0	-0.22350955

dense_2/MatMul_bias f4 [32]
0	0x00000000	0.0
1	0x3c5dd47f	0.013539433
2	0xbc41ee5e	-0.011836616
3	0x00000000	0.0
4	0xbbecea9c	-0.007230116
5	0x3c34e819	0.0110416645
6	0x00000000	0.0
7	0x00000000	0.0
8	0xbc14ba17	-0.00907757
9	0x00000000	0.0
10	0x00000000	0.0
11	0x00000000	0.0
12	0xbc53c0ae	-0.012924356
13	0xba951a91	-0.0011375715
14	0xbc14c442	-0.009079995
15	0x3c49ea99	0.012323999
16	0x00000000	0.0
17	0xbbc4a16c	-0.0060006883
18	0x3c474f97	0.012164972
19	0x00000000	0.0
20	0x00000000	0.0
21	0xbc22b6c9	-0.009931275
22	0xbc01a698	-0.007913254
23	0xbc39e492	-0.011345999
24	0xbbfdd8a5	-0.0077467733
25	0x3c539049	0.012912818
26	0xbc609a96	-0.013708731
27	0xbc60c368	-0.0137184635
28	0xbc1bf42b	-0.009518663
29	0xbc546f13	-0.012965935
30	0xbc71e449	-0.0147639
31	0x00000000	0.0

dense_2/kernel/transpose f4 [32, 64]
0	0x3d6681f0	0.05627626
1	0x3c9a29a0	0.018818676
2	0x3e20426c	0.15650338
3	0x3d360bb0	0.04444474
4	0x3e6aa974	0.22916204
5	0x3e1afef8	0.15136325
6	0x3c36ba40	0.011152804
7	0xbe3830f8	-0.1798743
8	0x3cdde380	0.02708602
9	0xbdb83980	-0.08995342
10	0x3e358de0	0.17729902
11	0xbe79d7bc	-0.24398702
12	0x3e6a7398	0.22895658
13	0x3e490d64	0.19634014
14	0x3e234cec	0.15947312
15	0xbcffe140	-0.031235337
16	0xbe749f14	-0.23888808
17	0x3e0ab7c8	0.1354667
18	0x3cd04ac0	0.025426269
19	0x3e018538	0.12648475
20	0xbe09d7e8	-0.13461268
21	0x3e7e49ac	0.24832791
22	0xbe706f94	-0.23480064
23	0x3d495c80	0.04916048
24	0xbdf477f8	-0.11936945
25	0xbd147ab0	-0.036249816
26	0xbddb3dd0	-0.10705149
27	0x3e3c1ab8	0.18369567
28	0x3e550990	0.20804429
29	0xbd409480	-0.04701662
30	0xbdc7a030	-0.0974735
31	0xbd907db8	-0.07055229
32	0x3df62e50	0.12020552
33	0xbdd60960	-0.10451007
34	0xbda86970	-0.082232356
35	0xbce3b760	-0.027797401
36	0x3e310db0	0.17290378
37	0xbd9b1a28	-0.07573348
38	0x39c99000	0.00038444996
39	0xbe34d3b4	-0.17658883
40	0xbe323240	-0.17401981
41	0x3ded5d08	0.1159001
42	0xbe2c994c	-0.16855353
43	0x3d607750	0.054801285
44	0xbe11c060	-0.14233541
45	0xbe4e7078	-0.20160091
46	0x3e170b00	0.1475029
47	0x3e7e91e8	0.24860346
48	0xbd84f368	-0.064917386
49	0x3e46f1a0	0.1942811
50	0xbe2826b4	-0.16421014
51	0xbdb005f0	-0.085948825
52	0x3e71d0f0	0.2361486
53	0xbdc6f4b0	-0.09714639
54	0x3c4bb140	0.012432396
55	0xbe357318	-0.17719686
56	0x3e1b1c80	0.1514759
57	0xbe03473c	-0.12820143
58	0xbd602370	-0.054721296
59	0xbd7a2090	-0.06106621
60	0x3d554760	0.05207002
61	0x3da752d8	0.08170098
62	0xbe173648	-0.147668
63	0xbe1252a8	-0.14289343
64	0xbe31f42c	-0.173783
65	0xb9bef41e	-0.00036421506
66	0x3dc3fab3	0.095693015
67	0xbe691bf4	-0.2276457
68	0xbe485169	-0.19562306
69	0xbc91ca9d	-0.017796809
70	0xbd055390	-0.032550395
71	0x3e09cac9	0.13456263
72	0x3d783f06	0.06060698
73	0x3d405cac	0.04696338
74	0x3e7c54bc	0.24641699
75	0xbe554455	-0.20826848
76	0xbd529640	-0.05141282
77	0x3df63510	0.120218396
78	0x3e367650	0.1781857
79	0xbd69a8bf	-0.057045694
80	0xbe2d2385	-0.16908081
81	0xbe3f7a85	-0.18699081
82	0xbd45b3d0	-0.048267186
83	0xbd8e1cb8	-0.069390714
84	0x3da37f2c	0.079832405
85	0xbd0af304	-0.033923164
86	0xbe406538	-0.18788612
87	0x3cecdeef	0.028914897
88	0x3e5334a8	0.20625556
89	0xbd317cb0	-0.043331802
90	0x3e76302e	0.24041817
91	0xbce39fa0	-0.027786076
92	0x3da8c1c0	0.0824008
93	0x3c79a140	0.015236199
94	0xbe17c14c	-0.1481983
95	0xbe523d44	-0.20531183
96	0xbdb8714f	-0.09005987
97	0x3e13fec0	0.14452648
98	0xbe1907ed	-0.1494443
99	0x3e4f6624	0.20253807
100	0xbde3dc64	-0.111260206
101	0xbe7b81a4	-0.24561173
102	0x3e6469aa	0.22305933
103	0x3e5ecb24	0.2175718
104	0xbe46e067	-0.1942154
105	0xbccfebe0	-0.025381029
106	0xbd4c8030	-0.049926937
107	0xbdd10f80	-0.102080345
108	0x3dda0778	0.10645956
109	0x3dfad30d	0.12247286
110	0x3ded7208	0.11594015
111	0xbd19ece2	-0.037579425
112	0xbdfec916	-0.12440698
113	0xbe333ebc	-0.175044
114	0xbd7bbd8c	-0.061460063
115	0xbd955fbd	-0.07293651
116	0x3d7ed5aa	0.062215485
117	0xbe046d18	-0.12932241
118	0x3e20581c	0.15658611
119	0xbe037bea	-0.12840238
120	0x3e8066f7	0.25078556
121	0xbe742da0	-0.2384553
122	0x3c8141e0	0.015778482
123	0xbdd50c40	-0.10402727
124	0x3e85a878	0.26105094
125	0xbdd6ef34	-0.10494843
126	0xbde2f69b	-0.110821925
127	0x3e4dd318	0.20100057
128	0x3e1afd7c	0.15135759
129	0xbe688354	-0.22706348
130	0x3df1d64b	0.11808451
131	0xbda8a470	-0.08234489
132	0xbd5cb0b0	-0.05387944
133	0x3d72fdc8	0.059324056
134	0xbe2d8a48	-0.16947281
135	0xbe22638a	-0.15858284
136	0xbe63b249	-0.22235979
137	0x3d4c1802	0.049827583
138	0xbdaf58a0	-0.08561826
139	0xbe45c527	-0.19313489
140	0x3e0092b8	0.12555969
141	0x3e2b3d48	0.16722596
142	0x3de5c531	0.11219252
143	0xbb7f06db	-0.0038913998
144	0x3c24a42c	0.010048907
145	0x3df12ec1	0.11776496
146	0xbdd01430	-0.101601005
147	0xbdf3a3f8	-0.11896509
148	0xbcdce362	-0.026963893
149	0xbda28de8	-0.07937223
150	0xbb2d5700	-0.002644956
151	0x3dadcfc2	0.08486892
152	0xbd8c3ee0	-0.0684793
153	0xbdc06158	-0.09393567
154	0xbd94245b	-0.07233497
155	0xbe127540	-0.1430254
156	0xbc992620	-0.018694937
157	0x3dd153e0	0.10221076
158	0x3d948468	0.07251817
159	0xbcb5c75c	-0.022189789
160	0x3d4899c2	0.04897476
161	0xbe6059f9	-0.21909322
162	0x3e62397c	0.22092241
163	0x3d2482c0	0.040163755
164	0x3e54323c	0.20722288
165	0x3e63aff0	0.22235084
166	0x3e138ef2	0.14409998
167	0xbe71b190	-0.23602891
168	0xbe3e776f	-0.18600248
169	0xbe4635d4	-0.19356471
170	0x3d193560	0.037404418
171	0x3e0023f0	0.12513709
172	0x3e175fa0	0.14782572
173	0x3d0468f0	0.03232664
174	0xbe13ef30	-0.14446712
175	0x3ddc17f5	0.10746757
176	0xbdb1a0e0	-0.086732626
177	0x3dedee36	0.11617701
178	0x3e5f27b7	0.21792494
179	0xbe27cea6	-0.16387424
180	0x3e5efd57	0.21776329
181	0x3e0cb438	0.13740623
182	0x3db9ef5d	0.09078858
183	0x3de37ec4	0.11108163
184	0xbe7cbccf	-0.246814
185	0xbe24e2d0	-0.16102147
186	0x3c7a4040	0.015274107
187	0xbe431ebc	-0.19054693
188	0x3d90cdb7	0.07070487
189	0xbe4788e3	-0.19485812
190	0x3e2b4673	0.16726093
191	0xbd30bde0	-0.04314983
192	0xbd7eed60	-0.062238097
193	0xbdceea48	-0.10103279
194	0x3e71c13c	0.2360887
195	0xbe22fbc4	-0.15916353
196	0xbdae3f00	-0.0850811
197	0x3d5cde00	0.053922653
198	0x3b852200	0.004062891
199	0x3e7f2568	0.24916613
200	0x3e1a1504	0.1504708
201	0xbe087a28	-0.13327849
202	0xbe3772dc	-0.17914909
203	0xbe421b4c	-0.18955725
204	0x3dbde6a8	0.0927251
205	0x3dea4058	0.11438054
206	0x3e41e22c	0.18933934
207	0xbc1e9e00	-0.009681225
208	0x3e5d9efc	0.21642679
209	0xbe4d749c	-0.20064014
210	0x3bb0ac80	0.0053916574
211	0x3d96a400	0.07355499
212	0xbe72cd10	-0.23711038
213	0xbe16a130	-0.14709926
214	0x3e3e777c	0.18600267
215	0x3db8ed20	0.09029603
216	0xbe577d18	-0.21043813
217	0x3e21bd8c	0.15794963
218	0x3c909c80	0.01765275
219	0xbe7a2b44	-0.24430567
220	0xbe641510	-0.2227366
221	0x3e68fffc	0.227539
222	0x3cc49a60	0.023999393
223	0x3e516e24	0.20452172
224	0x3df10be8	0.11769849
225	0x3e6b0964	0.22952801
226	0xbb8aa100	-0.0042306185
227	0x3e725c50	0.23668027
228	0x3d325b00	0.043543816
229	0xbe44e690	-0.19228578
230	0xbe0c1c64	-0.13682705
231	0xbd7baa60	-0.06144178
232	0xbe17a8b8	-0.14810455
233	0xbe2670c0	-0.16253948
234	0xbe34db5c	-0.17661804
235	0xbe6230c0	-0.22088909
236	0x3e1835f0	0.14864326
237	0x3cb5b540	0.022181153
238	0xbd05c0a0	-0.032654405
239	0xbd594f30	-0.053054035
240	0xbdc18cb8	-0.09450668
241	0xbe761730	-0.24032283
242	0x3e2dcbf4	0.16972333
243	0xbe38b1e8	-0.18036616
244	0xbe11897c	-0.14212602
245	0xbe36bf70	-0.17846465
246	0x3d08a370	0.03335899
247	0x3e5d9498	0.21638715
248	0x3e457990	0.19284654
249	0xbbb64880	-0.005562842
250	0x3de66dd8	0.1125142
251	0x3e3cf9b8	0.18454635
252	0xbe6826d4	-0.22671062
253	0xbd1bd9d0	-0.03804952
254	0x3e6b8ea4	0.23003632
255	0x3c5b9280	0.013401628

dense_3/MatMul_bias f4 [16]
0	0xbc1bdf93	-0.0095137535
1	0x00000000	0.0
2	0xbc8a2e51	-0.016867789
3	0x00000000	0.0
4	0xbc1b59ba	-0.009481842
5	0x00000000	0.0
6	0xbc1c3b64	-0.009535644
7	0xbc36743b	-0.01113611
8	0x3c181317	0.009281895
9	0x00000000	0.0
10	0xbc216d28	-0.009852685
11	0x00000000	0.0
12	0x3c188f08	0.009311445
13	0x00000000	0.0
14	0x3bb29390	0.0054497197
15	0xbc3d3604	-0.011548523

dense_3/kernel/transpose f4 [16, 32]
0	0xbea58aee	-0.32332557
1	0xbdf6f564	-0.12058523
2	0x3e85e625	0.2615215
3	0x3eafa19b	0.34302983
4	0xbdc2eb78	-0.09517568
5	0x3e085dc7	0.13317023
6	0x3e662396	0.22474512
7	0xbe959101	-0.29212192
8	0x3db58aa4	0.08864334
9	0xbe31fc4e	-0.17381403
10	0xbd8ea26c	-0.06964573
11	0xbe3da93e	-0.18521592
12	0xbe824682	-0.25444418
13	0xbe836068	-0.2565949
14	0x3d59bc1e	0.05315792
15	0x3e8185e9	0.25297478
16	0xbe8c3184	-0.27381527
17	0x3e459e68	0.19298708
18	0x3e850d0c	0.25986516
19	0x3de32524	0.110910684
20	0x3e777fc6	0.24169835
21	0xbd2efdab	-0.042722385
22	0x3bf4396f	0.0074531357
23	0xbe6586cf	-0.22414707
24	0xbe39481b	-0.18093912
25	0x3e89afff	0.26892087
26	0x3e314005	0.17309578
27	0xbea7bfac	-0.32763422
28	0x3e93b240	0.2884693
29	0x3d3f2a05	0.046670932
30	0xbe088cc4	-0.13334948
31	0x3e373de2	0.178947
32	0xbb116380	-0.002218455
33	0xbeb1d86b	-0.34735426
34	0x3e078f9c	0.13238376
35	0x3e070ade	0.13187739
36	0xbe29c372	-0.16578463
37	0xbe723a6a	-0.23655096
38	0x3e45e126	0.19324169
39	0x3ead057b	0.33793244
40	0x3dce3fc0	0.10070753
41	0xbe3de6df	-0.18545102
42	0x3e90a435	0.2825028
43	0x3c9fc910	0.019505054
44	0xbe319adb	-0.17344229
45	0x3bcdf600	0.006285429
46	0x3e282d16	0.16423449
47	0x3e5212f6	0.20515046
48	0x3e10dc6a	0.14146581
49	0xbd8cb428	-0.068702996
50	0xbd812024	-0.063049585
51	0x3e616492	0.22011021
52	0x3e6f092e	0.23343346
53	0xbe91c538	-0.28470778
54	0x3d3e1f38	0.04641649
55	0x3e1e2266	0.1544281
56	0xbe93c034	-0.28857577
57	0xbe7b56ea	-0.24544874
58	0x3e828a55	0.25496164
59	0x3dd501c8	0.1040073
60	0xbda54254	-0.08069292
61	0xbd7f50e0	-0.062332988
62	0x3dcf0f8c	0.10110387
63	0x3e91e347	0.2849371
64	0x3e91c27b	0.2846869
65	0x3db61c1c	0.0889208
66	0x3dd2418c	0.10266408
67	0xbe95e531	-0.29276422
68	0x3e95c758	0.2925365
69	0xbe80b57c	-0.25138462
70	0xbe4c0441	-0.19923498
71	0xbeab85aa	-0.33500415
72	0xbe5e3cbe	-0.21702859
73	0x3e8b140b	0.2716373
74	0xbe8ede80	-0.2790413
75	0xbe6e08b7	-0.23245512
76	0x3e9eb5b8	0.30998015
77	0xbe53cbc3	-0.20683198
78	0xbd7a1910	-0.061059058
79	0x3e8502a7	0.25978586
80	0x3d502e78	0.050825566
81	0x3cafdd72	0.021467898
82	0x3e96542f	0.29361102
83	0xbea97aca	-0.33101493
84	0x3e822f3d	0.25426665
85	0x3e2caade	0.16862056
86	0x3e303591	0.17207934
87	0x3e17deca	0.14831081
88	0x3dbbfc88	0.09179026
89	0xbd709d6c	-0.05874388
90	0xbeafd5f0	-0.3434291
91	0x3ea06bd6	0.31332272
92	0xbdc719ce	-0.09721719
93	0xbebcef59	-0.36901358
94	0xbdf86f20	-0.121305704
95	0xbea0424a	-0.31300575
96	0x3cfbbdb0	0.030730098
97	0xbd61c6d0	-0.055121243
98	0x3e3b4f46	0.18291959
99	0xbea259a9	-0.3170903
100	0xbe19ec25	-0.15031488
101	0xbdf28404	-0.11841586
102	0x3d4590e0	0.048233867
103	0x3dbd49c4	0.09242585
104	0x3e4633aa	0.19355646
105	0xbe3712d6	-0.17878279
106	0x3e8c6dd7	0.2742755
107	0xbe75472c	-0.23952931
108	0xbe0575c9	-0.13033213
109	0x3e98f18f	0.29871795
110	0xbe864f22	-0.2623225
111	0x3de73b70	0.11290634
112	0xbdb32270	-0.08746803
113	0x3e0cda1e	0.1375508
114	0xbe0b3a7d	-0.1359653
115	0x3e8b8755	0.27251688
116	0x3e9e7243	0.3094655
117	0xbe8ac24e	-0.27101368
118	0xbe7b4bab	-0.24540584
119	0x3e3621ea	0.17786375
120	0xbe206c85	-0.15666397
121	0x3d9f51c8	0.077792704
122	0x3e8788ad	0.26471463
123	0x3d868298	0.065678775
124	0x3a88ba00	0.0010431409
125	0xbe219dd0	-0.15782857
126	0x3e8ec4bf	0.2788448
127	0xbe7c3509	-0.24629606
128	0x3da34cb0	0.07973611
129	0x3e37e0a5	0.17956789
130	0xbe7e8d98	-0.24858701
131	0xbe030898	-0.12796247
132	0x3e31ef99	0.17376556
133	0xbe04ef5a	-0.1298193
134	0x3dfd7030	0.12374914
135	0x3e93bed3	0.28856525
136	0x3d19217d	0.037385453
137	0x3e236a4a	0.15958515
138	0xbdc3d37c	-0.09561822
139	0xbd938db0	-0.07204759
140	0xbe18ff20	-0.14941072
141	0x3e57ed91	0.21086718
142	0xbe20d61c	-0.15706676
143	0xbe56026f	-0.20899366
144	0x3db4a264	0.08820036
145	0x3ea98b9c	0.33114326
146	0x3d0b7dd3	0.034055542
147	0xbd874b48	-0.06606156
148	0x3e6aa62a	0.22914949
149	0x3c7a7b03	0.015288117
150	0x3e53ac5a	0.20671216
151	0x3e9c83b2	0.30569226
152	0xbe4a66a7	-0.19765721
153	0x3d4ae100	0.049530983
154	0xbe917ed6	-0.2841708
155	0xbc357077	-0.011074177
156	0x3e2456a9	0.16048683
157	0xbdc82a48	-0.097736895
158	0x3e8611a7	0.26185343
159	0x3e9e91e5	0.30970684
160	0xbe764a0f	-0.24051689
161	0x3d2dee80	0.04246378
162	0x3e800f0f	0.2501149
163	0xbe815bcc	-0.25265348
164	0x3e9c899f	0.30573747
165	0x3e22884a	0.15872303
166	0xbea96416	-0.33084172
167	0x3ea3a5bf	0.31962392
168	0xbe53eb11	-0.2069514
169	0x3e89d03b	0.2691668
170	0x3d8e6cac	0.06954321
171	0xbe3be857	-0.1835035
172	0x3c060960	0.008180946
173	0xbdefc6a8	-0.117078125
174	0x3e0a7d96	0.1352447
175	0xbd881254	-0.06644121
176	0xbe29bf9f	-0.16577004
177	0x3eb1167f	0.34587476
178	0xbd1d7240	-0.038439035
179	0x3dc6b2b4	0.09702054
180	0xbe87fad5	-0.26558557
181	0xbe5953c2	-0.21223357
182	0x3d440510	0.04785639
183	0x3e457162	0.19281533
184	0x3e5cea12	0.21573666
185	0x3daf0d4c	0.08547458
186	0xbe74c38a	-0.23902717
187	0xbead6a2a	-0.3387006
188	0x3e6a5fe2	0.22888139
189	0xbe9b8882	-0.30377585
190	0xbea72a7d	-0.32649603
191	0xbc19a420	-0.009377509
192	0xbe9ef089	-0.3104289
193	0x3e266c1f	0.16252182
194	0xbbe204bf	-0.0068975384
195	0x3e7dd916	0.24789843
196	0xbe21423b	-0.15747921
197	0xbd11bc93	-0.03558023
198	0xbdcf1754	-0.10111871
199	0x3eb01137	0.34388134
200	0xbd7df47b	-0.062000733
201	0xbe257560	-0.16158056
202	0x3e91dfd3	0.28491077
203	0x3d91461c	0.070934504
204	0x3e72b6a2	0.23702481
205	0x3e8f1c77	0.27951404
206	0x3e82d4c2	0.25552946
207	0xbd7f07d0	-0.06226331
208	0x3e932403	0.28738412
209	0x3e875b81	0.26437
210	0x3cb35fba	0.021896232
211	0xbe339f1c	-0.17541164
212	0x3b45a480	0.0030157864
213	0x3b5d9965	0.0033813354
214	0x3ea1ff78	0.3164022
215	0xbcfe236a	-0.031022746
216	0x3d101fdf	0.035186645
217	0xbe9525de	-0.29130453
218	0x3e0429f2	0.12906626
219	0xbdaee675	-0.0854005
220	0xbd8682fd	-0.06567953
221	0x3e3578fe	0.17721936
222	0x3e3f2690	0.18667054
223	0x3e893ccd	0.268042
224	0xbe4109e7	-0.18851434
225	0xbe50f9c3	-0.20407777
226	0x3c80763f	0.015681384
227	0xbeabc679	-0.3354986
228	0x3956e9e0	0.00020495756
229	0xbe5065a3	-0.20351271
230	0xbe14e5bd	-0.14540763
231	0x3e9a6a25	0.30159107
232	0x3e88497e	0.2661857
233	0xbe03897c	-0.12845415
234	0xbd6d53b0	-0.05794114
235	0x3e9f421f	0.31105134
236	0x3e52d8f9	0.20590581
237	0xbe43d68a	-0.19124809
238	0x3d83fd5d	0.064448096
239	0xbc8feeff	-0.017570017
240	0x3de75694	0.1129581
241	0x3d9e2904	0.07722667
242	0xbdaec6c2	-0.08534004
243	0xbe1447a3	-0.14480452
244	0x3e887d6d	0.26658192
245	0x3e68ee65	0.2274719
246	0xbd2e7831	-0.042595092
247	0x3ea186d7	0.31548187
248	0x3ea14485	0.3149759
249	0xbe0e4cca	-0.1389648
250	0x3e9e9fff	0.30981442
251	0x3e6338b4	0.221896
252	0xbd03b33c	-0.032153353
253	0x3e091588	0.1338712
254	0x3dbbe33f	0.09174203
255	0x3e1f09ee	0.15531132

dense_4/kernel/transpose f4 [1, 16]
0	0xbe4c7535	-0.19966586
1	0x3f16428a	0.5869528
2	0xbe697da1	-0.2280183
3	0x3e35ef8c	0.17767161
4	0xbe948543	-0.2900792
5	0xbec08d5e	-0.37607855
6	0xbe23ef04	-0.16009146
7	0xbf03d595	-0.51497775
8	0x3e3a69e5	0.18204458
9	0x3f0a8bd0	0.54119587
10	0xbe8bc7bc	-0.27300823
11	0x3ba99200	0.0051748753
12	0x3e739e3f	0.23790835
13	0x3de03260	0.10947108
14	0xbed245c8	-0.41068864
15	0xbe892068	-0.26782537
